trained_models/cnn_01.pt (torch, 119967 bytes, 6 tensors)

weight f4 [16, 1, 5, 5]
000000 13 36 9f 3d ab be ff bd 9c 8b ff bd e0 0a 45 bd
       0.07773986 -0.12487539 -0.124778 -0.048106074
000010 a8 e0 b4 be d1 79 34 3e e9 ec a5 3d f1 98 44 3e
       -0.3532765 0.17624594 0.08101828 0.19198968
000020 e6 17 88 3d 3c 99 8f bd ce 01 09 3e 14 45 14 3e
       0.06645183 -0.07011649 0.13379595 0.14479476
000030 68 02 83 3e 3e b3 b3 3d 4f 9d 44 3d 00 c8 0b bd
       0.25587773 0.08774422 0.048001584 -0.03412628
000040 9d e5 1d 3d c7 0a ac 3d 6d 67 8e 3e 21 54 22 3e
       0.038549054 0.08400493 0.27813283 0.15852405
000050 f0 13 4f be bf 91 8b be 0c 87 22 be cb dd 00 be
       -0.2022245 -0.27259633 -0.15871829 -0.12584607
000060 16 1b 4c 3c 96 48 87 3d e3 20 62 3e 22 d7 52 3e
       0.01245763 0.066056415 0.22082858 0.20589879
000070 4c 0f 37 be 4b 97 64 3d b4 33 10 3e ac 8d 9a 3e
       -0.17876929 0.055808347 0.14082223 0.30186212
000080 3d 66 56 3e df 86 63 be d0 db be be 60 bb dd 3c
       0.20937438 -0.22219418 -0.3727708 0.027066886
000090 9d d5 a6 3e e9 8c 0b 3d db 16 2b bd 01 a2 b3 be
       0.3258485 0.03406993 -0.041769844 -0.35084537
0000a0 7d 64 95 3e 99 d8 38 3d 1e b8 4f 3e 7e 11 f8 bd
       0.2917823 0.04512844 0.20285079 -0.12112711
0000b0 d6 10 a8 be 09 78 33 3e 4d b9 49 39 43 19 f2 3d
       -0.32825345 0.17526259 0.00019237884 0.118212245
0000c0 6b 8d fc bd 44 b6 54 be 14 b2 ab be b2 1a 65 be
       -0.12331661 -0.20772654 -0.335343 -0.22373465
0000d0 33 b4 08 3d e8 e4 30 bc 09 99 90 3e 11 32 dc 3d
       0.033374976 -0.010796763 0.28241757 0.10751737
0000e0 98 56 39 bb 81 ed 0c bd e1 d7 90 3e d3 ab 3b 3e
       -0.0028280374 -0.03440619 0.28289703 0.18327264
0000f0 29 52 b6 bd dc 66 6b 3e c1 30 8d 3e 32 13 96 3e
       -0.089023896 0.22988456 0.2757626 0.2931152
000100 cd a6 11 be 3e 87 25 3d a6 3c ae 3d a7 5c a4 3d
       -0.14223786 0.04041218 0.085076615 0.080254845
000110 0f 78 56 be 8d b7 9e be 92 93 1c 3e 1a 50 11 bd
       -0.20944236 -0.30999413 0.15290669 -0.03547678
000120 06 ca 6e 3d b8 62 b2 bd 00 fa 36 bd 62 6e b3 bd
       0.058298133 -0.08710235 -0.044672012 -0.08761288
000130 45 6b 43 3d 53 d9 4a 3e 9a ae df bc c7 96 70 3e
       0.047709722 0.19809465 -0.027304936 0.23495017
000140 0c f4 aa be 30 b3 55 be 14 77 c6 3d 6f 23 fc 3d
       -0.33389318 -0.20869136 0.09690681 0.12311446
000150 7e 87 92 3e fd be b2 be 4a 1f 45 be 04 0b 87 3e
       0.28618997 -0.34911337 -0.19250217 0.26375592
000160 28 2a 17 3e 01 0e 82 3e a2 a5 ff bd 83 87 e8 bd
       0.14762175 0.2540131 -0.12482764 -0.11353972
000170 38 3f 4c 3e a8 23 65 3e 7f 24 11 bd de a4 11 be
       0.19945991 0.22376883 -0.035435196 -0.14223048
000180 f1 b8 13 3e 05 83 44 3e 12 9a 86 3d d8 b3 51 bc
       0.14426018 0.19190605 0.06572355 -0.012799226
000190 23 c6 2a 3e 68 77 b8 bb 7e bf 26 3e 4a ba dd 3d
       0.16677146 -0.0056294687 0.16283986 0.108265474
0001a0 97 89 40 be 0c 0b 51 be 31 bc 81 3e cf c2 b7 3d
       -0.18802486 -0.2041437 0.2533889 0.08972704
0001b0 ee e9 0f 3e 05 b4 46 bd ec 65 88 3d f6 ca 79 3e
       0.14054081 -0.048511524 0.06660065 0.2439383
0001c0 91 5f 85 3e 43 3a 53 be 75 67 0f be 0c 15 20 3e
       0.26049474 -0.20627694 -0.1400431 0.15633029
0001d0 ec fd 63 3e 35 fc 4d 3e 6d 2d 42 be bd 35 8f be
       0.22264832 0.2011574 -0.18962641 -0.27970687
0001e0 c2 a6 11 be 73 aa 8e 3d de a0 8d 3e 2d f9 d1 bd
       -0.1422377 0.06966104 0.27661794 -0.10252605
0001f0 00 6d 3d 3d 67 2a 73 be ce ea ad be 06 8c a9 bd
       0.04624653 -0.23746644 -0.33968204 -0.082786605
000200 d0 d3 36 3e 49 34 77 3e d9 2b 36 be ba 59 94 3d
       0.17854238 0.24141039 -0.17790164 0.072436765
000210 48 c1 89 3e d4 c2 6f 3e 7c d4 f0 3d c1 48 80 3e
       0.26905274 0.23414165 0.11759278 0.25055507
000220 23 4e 60 3e cd 8b cc 3d 08 ad f0 bd c4 11 45 be
       0.21904807 0.099876024 -0.11751753 -0.19245058
000230 f3 c5 5d bc 19 4b ea bc e4 e4 3b be 24 05 61 3d
       -0.013535964 -0.028600262 -0.18349034 0.054936543
000240 28 ee b6 3d 30 ef 47 bd 5d eb 51 3c 7a 81 4a 3c
       0.089321434 -0.04881209 0.012812463 0.012359971
000250 99 9f 08 3e ba 4b 3d 3e 0d 22 c4 bd 95 9b 32 3e
       0.13342132 0.18485919 -0.09576807 0.17442162
000260 38 0d 1e bd 28 c6 07 be 01 4d d0 be 6f 7a 07 be
       -0.038586825 -0.13259184 -0.4068375 -0.13230298
000270 8c c6 8f bd 37 3e 40 bd 96 09 91 3d 77 4a 67 be
       -0.07020292 -0.046934333 0.070819065 -0.22587
000280 c0 0e 2d be 05 9e df 3d 1c 10 c2 3d b7 09 d5 3d
       -0.16900158 0.10918812 0.09475729 0.104022436
000290 c2 3b 3d be 90 18 ce 3d 07 f1 31 bc c7 58 ce 3c
       -0.18479827 0.10063279 -0.010860688 0.025188817
0002a0 e9 86 66 bd 80 8f f6 bc 2a 9e d6 3c 6d 35 25 3e
       -0.056281004 -0.030097723 0.026198465 0.16133662
0002b0 ff da 20 3e 73 eb 65 3e 79 63 bc 3e 2c 6e 7b 3e
       0.1570854 0.22453098 0.36794642 0.24553746
0002c0 d6 76 18 3e bf 14 bb bd 12 e4 90 be 42 24 c7 3d
       0.14889082 -0.091348164 -0.28299004 0.097237125
0002d0 29 8d 1f 3d f9 af 98 bd 0c c7 cf be 2e 42 ac be
       0.03895298 -0.07455439 -0.40581548 -0.3364424
0002e0 0a 2b b3 be 80 0c 89 3e df b6 35 be 4e 53 96 be
       -0.34993774 0.2676735 -0.17745541 -0.2936043
0002f0 ca c2 44 be 1f f0 68 be 14 76 4d 3e 11 61 db 3d
       -0.19214931 -0.22747849 0.20064574 0.10711873
000300 14 94 fb 3c 41 de fd 3d 5c 73 8b 3e fe f6 e4 bc
       0.030710258 0.12395907 0.2723645 -0.027949806
000310 aa 0b a0 3e f9 f7 b0 3e 6a ee c5 3e 59 e8 67 3d
       0.312589 0.34564188 0.38658458 0.05661807
000320 cf 9c 27 bd 23 48 80 be 66 ae 19 3e 6b 2c 06 bd
       -0.04092103 -0.25055036 0.15007934 -0.032757204
000330 7c 09 cc 3d c3 78 87 bd 6f 8f d8 bd e0 1c d8 bc
       0.099627465 -0.0661483 -0.10574233 -0.026380956
000340 e2 0e d8 3d 8e 2e 0a 3e 87 40 8f 3d fa e2 85 3d
       0.10549714 0.13494322 0.069947295 0.06537433
000350 0a 69 38 be 14 a0 41 3e 95 25 80 3e 21 4a 5a 3e
       -0.18008819 0.18908721 0.25028673 0.2131734
000360 7a 32 2d 3e f2 30 3e be 9f 63 d6 bd 5e aa 79 3e
       0.16913787 -0.18573359 -0.1046822 0.24381396
000370 cc c4 6b be be 98 bc 3d c5 68 7c be 9d d1 3f be
       -0.23024291 0.09208821 -0.24649341 -0.18732305
000380 5c 35 17 3e 7c fc d1 bd ba bd 34 3d 55 bd 87 3e
       0.14766449 -0.10253236 0.04412625 0.26511636
000390 b5 91 98 3e 4a 7f 93 3e d2 f9 32 3d fd bc 66 bd
       0.29798666 0.2880805 0.04369528 -0.056332577
0003a0 1a b2 b6 3e 3c 8e b1 3d 52 bd 95 bd cb 86 90 3d
       0.35682756 0.08669707 -0.073115006 0.0705696
0003b0 2c 7a 0c be c1 4e 48 3e 15 0b 60 3e 78 3b 24 be
       -0.1371848 0.19561292 0.21879227 -0.1603831
0003c0 41 e6 89 be 66 e9 06 be e4 cc 6f 3d d3 35 56 3d
       -0.26933482 -0.13174972 0.05854501 0.052297425
0003d0 3e c4 cd bd 0f d4 3b be a2 80 b8 be 56 7a 42 be
       -0.10047196 -0.18342613 -0.3603564 -0.1899198
0003e0 ce 12 9e bd c2 c8 21 3e 83 61 32 3e 4b 09 31 bd
       -0.077184305 0.1579924 0.1742001 -0.043221753
0003f0 2f 74 1b 3c 72 dd 9b 3d 68 4f 06 bc 7f 73 b6 bd
       0.00948815 0.07610597 -0.008197643 -0.08908748

bias f4 [16]
000000 ee f7 31 bd 04 3f 3b 3d 08 10 6e bc df 77 13 be
       -0.043449335 0.045714393 -0.014530189 -0.14401196
000010 ea 37 81 bd 5a bc 29 be 2a f4 cb 39 93 00 12 bd
       -0.06309493 -0.16575757 0.00038901094 -0.03564508
000020 08 39 d2 3a 3b ef 8b bb 57 ae 70 bc 50 d9 62 3d
       0.0016038725 -0.004270462 -0.014690003 0.055383027
000030 41 dc 19 3d 8d 37 16 3d 48 96 67 3d 1e ab df bb
       0.037563566 0.03667407 0.056539804 -0.0068258187

weight f4 [32, 16, 5, 5]
000000 d7 04 69 bd 45 87 50 bd 53 f3 1e be 84 97 08 be
       -0.05688938 -0.050910253 -0.15522508 -0.13339049
000010 4d fc d3 bd 61 89 61 3b c8 84 e2 bd 67 54 e0 bc
       -0.10350857 0.003441416 -0.11060482 -0.027383996
000020 c0 d1 5d bd 13 c0 23 3d 03 66 82 bc 38 3d 02 be
       -0.05415511 0.039978098 -0.015917784 -0.12718666
000030 62 90 df bd b5 7d 3f bd 7d 8d 89 3d ea a7 f7 3b
       -0.10916211 -0.046750743 0.0671644 0.0075578587
000040 db 72 20 3c 1c e6 81 bd ac 86 af bd 2a 5b ed bd
       0.009793009 -0.06342718 -0.085706085 -0.11589654
000050 ec 9f 1f 3d 9a e5 03 3d 58 0d b6 3d e5 94 a3 3d
       0.038970873 0.032201387 0.08889264 0.07987384
000060 4c 34 5f bd 0d 0c 8e 3d ce da bf bd 1c 4e 8a 37
       -0.054493234 0.06935892 -0.093679056 1.6487254e-05
000070 d1 1b 74 bd d6 4a be 3d 86 f0 e5 bc 1b a2 71 bb
       -0.05959684 0.092916176 -0.028068792 -0.0036870304
000080 5d 9e ca bd da 6e d8 bd 67 9a 70 3d 82 47 78 3d
       -0.09893487 -0.10568018 0.058741 0.06061507
000090 e7 21 bf 3d 42 95 f5 bc 66 12 17 3c 1f 69 4b 3d
       0.09332638 -0.029978398 0.009220695 0.0496608
0000a0 d4 52 12 3d 0f e9 f6 3c c8 83 13 3d b6 35 27 bd
       0.035723522 0.030140428 0.03601435 -0.040822707
0000b0 83 51 f2 3c d3 97 95 bc 56 cd cc 3d 20 c7 25 3d
       0.029579883 -0.018260872 0.10000102 0.040473104
0000c0 44 8a 95 bc 13 eb 4a 3d d0 00 cf bd 09 72 89 bd
       -0.018254407 0.04954059 -0.10107577 -0.067112036
0000d0 a0 46 6a bd ff 38 39 bd b5 ff b4 3c 20 28 b3 bd
       -0.05719626 -0.04522037 0.022094587 -0.087478876
0000e0 d5 32 01 bc f9 6e f5 bc 1d ce 84 3d d6 a7 71 3d
       -0.007885654 -0.029960142 0.064846255 0.05899795
0000f0 9e dc 81 bd e3 1a 51 3c d3 7d 1b bc 49 44 0b bd
       -0.063409075 0.012762758 -0.009490448 -0.03400067
000100 43 e9 1a 3d 16 75 58 b9 53 bc fe 3b bb 9a 25 bc
       0.037820112 -0.00020642983 0.007773915 -0.010107691
000110 93 48 1d 3d fc b2 b4 3c 4e e8 05 bd 4c 6e 53 3d
       0.03839929 0.022058003 -0.032692246 0.05161886
000120 23 25 29 3c 74 46 a0 3a a0 c2 c7 bc d9 29 7c bd
       0.0103237955 0.0012228028 -0.024384797 -0.061563347
000130 78 30 e0 ba f7 6b d0 bd b5 66 82 3d ec ac 9c 3d
       -0.0017104289 -0.10176843 0.06367246 0.0765017
000140 e0 e0 e7 bc ad 40 13 be f8 ea 44 bd cd f5 91 3d
       -0.028305471 -0.1438014 -0.048075646 0.07126961
000150 72 09 5c 3b 1b 71 0f bc 64 c6 58 bd 1f e2 32 bc
       0.0033574966 -0.008754994 -0.052923575 -0.010918169
000160 66 29 02 3d 34 63 6a 3d 21 ea f1 3d 50 b7 b2 bc
       0.031777762 0.057223514 0.11812235 -0.021815926
000170 22 6e 43 3d b2 e1 ee bb fe 53 4b bd e1 f4 2e 3e
       0.047712453 -0.0072900886 -0.049640648 0.17085601
000180 85 2e 23 3d ac d2 85 3c ec 86 8c bc 97 b1 0c be
       0.039839286 0.016335808 -0.01715418 -0.1373962
000190 65 20 73 bd 60 dc d3 bd 89 5d 99 bd 15 83 70 bd
       -0.059357066 -0.103447676 -0.074885435 -0.05871876
0001a0 1e 00 a1 3b 0d 9a 69 bd 48 75 2e bd d5 02 dd bd
       0.004913344 -0.05703168 -0.042592317 -0.10791556
0001b0 8f c7 49 bd 03 43 02 3c 81 56 5f 3d c9 68 05 3d
       -0.04926258 0.007950547 0.054525856 0.032570634
0001c0 51 b8 70 bd 38 a3 7d bd f2 88 fe 3c 6b 8b 9b 3d
       -0.058769528 -0.061923236 0.03107116 0.07594951
0001d0 51 06 a4 3d 3b c8 4a 3c bf 2d 1e bd 27 ee 1d bd
       0.08009017 0.01237684 -0.038617846 -0.038557198
0001e0 b3 f4 a3 3d ec 81 7a 3d 42 c7 dd bb d0 69 2d 3d
       0.08005657 0.06115906 -0.006768138 0.04233724
0001f0 09 c0 10 3d f1 38 f3 bd 92 c4 6c bd 03 43 94 bd
       0.03533939 -0.11876095 -0.05780465 -0.07239344
000200 fc 77 aa bc c9 f0 99 3d 5c 35 dc bd 52 34 44 bd
       -0.020809166 0.07516629 -0.10752365 -0.04790146
000210 27 66 bd bd e9 f2 87 3d 06 a9 8e 3d 4c 98 d7 bc
       -0.09248 0.06638128 0.069658324 -0.026317738
000220 56 ea c2 bc 88 ee 98 bd 3b 8f e9 bc 1c c3 a7 3c
       -0.02379338 -0.07467371 -0.02851068 0.020478778
000230 69 0e c3 3d 21 be 6a bc 94 23 ad bd 7e 5f 9b bd
       0.09524233 -0.014327557 -0.084540516 -0.07586573
000240 32 b4 c7 bc d6 cd d6 3c 6e 57 13 bd ca 4d 88 bd
       -0.024377916 0.026221197 -0.03597205 -0.06655462
000250 bd 39 e5 3b 6f 53 3e bd 61 19 03 be 62 e9 c8 bd
       0.0069954083 -0.046466287 -0.1280265 -0.09810139
000260 a0 a6 03 bd 8f de d3 bc 05 ad e9 3d 5c 39 1b 3c
       -0.032141328 -0.02586296 0.11409954 0.009474125
000270 e1 63 39 bd 0d 0d 1d be 40 22 cd bd f2 21 bb 3d
       -0.045261268 -0.1533701 -0.10016298 0.09137334
000280 8f 0b 98 3d 5d 7a 85 bb 1c 9b 61 bd b8 d7 00 be
       0.074240796 -0.0040734247 -0.055079564 -0.1258229
000290 0a aa 0a 3c ef 25 94 3d 71 bd 01 3d c0 77 3a 3d
       0.008463392 0.07233798 0.031674806 0.04552436
0002a0 a0 c1 da ba bb 7f 70 bd 3c 20 00 3d 92 0d b6 3d
       -0.0016689785 -0.058715563 0.03128074 0.08889307
0002b0 28 74 76 3d 9c 5a ec 3d dd 41 e7 3d 1f 24 96 3d
       0.06016937 0.1154072 0.11291859 0.07331108
0002c0 b3 d1 8d bd 9e e1 7e bc 72 2d 80 bc 7a 24 08 ba
       -0.069247626 -0.015556721 -0.01564667 -0.0005193424
0002d0 b1 8a 97 3d cb 9d 80 bd b3 c1 24 be 78 98 97 bd
       0.073995 -0.062800966 -0.16089515 -0.07402128
0002e0 f1 e8 32 bc 59 ad 96 3d 94 17 a9 3d c0 ea 6a bd
       -0.010919795 0.07357282 0.0825645 -0.05735278
0002f0 4a 87 41 be d9 d8 dd bd fb 18 2a bc f4 ec d6 3d
       -0.18899265 -0.10832376 -0.010381932 0.10494414
000300 8c 2b 2e 3d dc d8 25 3d 35 6c 0c bc 09 98 08 be
       0.042522 0.040490016 -0.00857072 -0.13339247
000310 e5 ac e3 3c 77 b0 9b 3d 81 c1 88 3d b8 37 d1 3d
       0.027792403 0.076020174 0.06677533 0.10215706
000320 8f ef 4a 3c 08 68 8a bc bc 76 4b bc 1f 10 17 3d
       0.012386217 -0.01689531 -0.012418445 0.03688061
000330 d6 9c 2a bb 15 ab 33 bd 77 07 26 3c 75 88 98 bc
       -0.0026033423 -0.04386433 0.010133616 -0.018619755
000340 85 71 8b 3d 0d c5 a8 3d 4b f5 9e bc 7c 51 ac 3c
       0.068087615 0.082407095 -0.019404074 0.021034949
000350 09 6a ee bc 16 23 5c 3d 2f b3 aa 3d 65 e6 c6 3b
       -0.029103296 0.053744398 0.08334958 0.0060699456
000360 76 b9 ba bc 60 d3 89 bd 1e 6d 77 bd 4b 45 31 bd
       -0.022793513 -0.0672977 -0.060406797 -0.043278974
000370 6d 0e 52 3c b9 e2 f7 bc e4 e3 52 bd 14 c0 50 bd
       0.012820822 -0.030259477 -0.051486865 -0.05096443
000380 dd cf d7 bd 26 80 9d bc 22 97 08 3e bf 85 3c 3d
       -0.10537694 -0.019226145 0.13338903 0.046025988
000390 ab 34 e1 3c db f9 92 3d 24 3d d2 bd 23 c4 6f bc
       0.027490934 0.071765624 -0.10265568 -0.014634165
0003a0 b1 7d 02 be 26 52 fe 3b 7b 8a 86 3c f3 0d 00 3b
       -0.1274326 0.0077612577 0.016423455 0.0019539564
0003b0 54 b4 04 be ba 02 92 bd 58 bd b6 bc 0e c4 22 3d
       -0.12959415 -0.07129426 -0.022307083 0.039737754
0003c0 f6 67 ce 3c 0a 85 db 3b 9e 46 cd bd 06 4b 83 bc
       0.025196057 0.006699209 -0.10023235 -0.016026985
0003d0 bc 46 9b 3b 53 22 d8 3d 3d 2e 30 bd d5 bb e8 bd
       0.004738657 0.10553422 -0.043012846 -0.11363951
0003e0 09 4d ba bc 00 5f fa bd 16 c3 eb 3c 51 fb be bd
       -0.022741811 -0.12225151 0.028779548 -0.093252786
0003f0 b1 42 d4 bd b7 a8 67 bd ae 77 70 3d b9 de f5 bc
       -0.10364283 -0.056557383 0.058707885 -0.030013429

bias f4 [32]
000000 47 8e 86 bd 4f fb 5b bd 27 60 6a bd 19 60 82 bd
       -0.06570106 -0.053706463 -0.057220604 -0.063659854
000010 c0 d6 50 bd c6 e9 fc 3b 80 79 5d 3c be bd 37 bc
       -0.05098605 0.0077182977 0.013517737 -0.011214672
000020 ae 6e 09 3c 5b cb 08 3c 62 b2 bc 3c b5 d8 04 bd
       0.0083882045 0.008349265 0.023034278 -0.03243323
000030 88 4e 95 bd f1 04 9a bb 9c 0d ca ba 6c fe 28 bd
       -0.07290369 -0.004700296 -0.0015415433 -0.04125826
000040 1f 01 a1 39 d8 84 26 bd 36 e1 0d 3c 2c 0f 2b 3d
       0.00030709148 -0.040654033 0.0086596515 0.041762516
000050 23 8c 23 bd fd 85 23 3d a6 2e 37 bc 7e 6d 5a bd
       -0.039928567 0.039922703 -0.011180555 -0.053327076
000060 da 57 81 bd 21 e8 33 bd 3d 66 25 3b b0 15 e1 3a
       -0.063155845 -0.043922547 0.002523794 0.0017172601
000070 e3 cf bb 3c 71 ba 88 bb c5 91 73 bd 00 2b 85 bd
       0.022926277 -0.004172616 -0.05946519 -0.06502342

weight f4 [10, 1568]
000000 bb 20 64 38 58 42 ad bc 07 0a 82 3c 62 cb f2 3a
       5.438992e-05 -0.0211498 0.015873922 0.0018523748
000010 70 66 72 3c bf 11 3d bd 87 af 53 3d 9a 34 82 bd
       0.014794931 -0.046159502 0.051681068 -0.06357689
000020 76 1c a4 bd 9d 0b 3c bd 45 9b 65 bc e9 b7 aa 3d
       -0.08013241 -0.045909513 -0.01401407 0.08335859
000030 57 2a 01 3c ce 7b 5d 3d 56 7f 6f bd 3b a9 66 bd
       0.00788363 0.054073147 -0.058471046 -0.056313735
000040 ef 79 a9 3c 6a bc 3a 3d a3 c0 17 3d 11 47 5e 3c
       0.020688025 0.045589842 0.037048947 0.013566748
000050 6a 64 31 3d 4b 9e 9c bd 55 9d 3b bd 34 e1 0a bd
       0.043308653 -0.076473795 -0.04580434 -0.033906177
000060 f0 e8 e2 3c e0 cd ec 3c dc 07 d7 bc 94 ba 19 3d
       0.027698964 0.028906763 -0.026248865 0.03753145
000070 af e4 03 3c 20 ec 35 3c 5a 82 1c bd 00 12 47 3d
       0.008050128 0.01110366 -0.03821025 0.04860115
000080 71 fc 32 3d 3d 10 69 bd 3d 2c 57 bd bf a1 c9 3c
       0.043697778 -0.05690025 -0.052532423 0.02461326
000090 58 82 bf 3c 1f 0f 5e bc de 49 2d 3d 7a 1b b6 b9
       0.023377582 -0.01355341 0.042306773 -0.00034734217
0000a0 d9 08 46 bd dc e1 76 bc a2 ae af 3c 90 02 66 3c
       -0.04834828 -0.0150684975 0.021445576 0.014038697
0000b0 98 fd 0b bd 2c 02 31 be 27 c9 dd bd 22 cf 68 bd
       -0.034177393 -0.17285985 -0.108293824 -0.056838162
0000c0 94 4a ba bc e8 86 76 bb b1 09 e3 bc bf 66 a3 3b
       -0.02274064 -0.0037617031 -0.027714582 0.0049866135
0000d0 66 03 fc bb a4 66 05 3d 0b 66 95 3c 93 ed 3c bd
       -0.007690835 0.03256859 0.018237134 -0.046125006
0000e0 91 10 cd 3b e3 e9 ff 3a a8 52 cd 3c 77 88 20 3c
       0.0062580784 0.001952466 0.025063828 0.009798161
0000f0 e8 de 74 bc 02 d1 24 3d c3 2f a1 3a 69 7e b9 bc
       -0.014945723 0.040238388 0.0012297559 -0.022643285
000100 db 31 7b 3b eb a9 73 bd 6a a0 d5 bc e2 67 32 bb
       0.0038329277 -0.05948822 -0.026077468 -0.0027222564
000110 be 77 97 3b bb 10 fc 3c 4d 16 12 3c f8 bc 29 3d
       0.0046224287 0.030769696 0.00891645 0.04143998
000120 7c 3c 82 bc ad d9 95 bd 73 e1 5f bd 51 8c d0 3c
       -0.015897982 -0.07316909 -0.054658365 0.025457533
000130 ad f5 08 3d 93 f1 2e 3c 7b 8c 3e 3d 0d 40 58 3d
       0.03343742 0.010677713 0.04652069 0.05279546
000140 ca 5d 6e 3c 08 5c 22 bd 35 ef 8a bc c0 bd cf bb
       0.014548728 -0.03963855 -0.016959766 -0.0063397586
000150 cd 27 36 3a dd 36 17 3c 47 f9 2b 3d 9d c8 4f 3d
       0.000694868 0.009229389 0.041985776 0.05072843
000160 f0 e9 67 3c 76 5e ae bc d3 75 8b bc 5d 90 34 bd
       0.014154896 -0.021285277 -0.017023956 -0.044082988
000170 87 3f 0b bc 91 a2 4d bd 5c 7f 6e bb d1 6d 40 3d
       -0.008499033 -0.050203864 -0.003639183 0.04697973
000180 1d d3 0e bd 07 9d af bd 5e 32 2f bd 99 f4 58 bc
       -0.034869302 -0.085748725 -0.042772643 -0.01324191
000190 dd c1 19 bb 13 66 90 bc b8 7d 91 bc a9 de e5 3a
       -0.0023461499 -0.017626798 -0.017760143 0.0017537671
0001a0 03 c9 26 bd 35 f7 bd 3b 9a 62 b0 3b f6 52 fb bc
       -0.040719043 0.0057972916 0.005382848 -0.030679207
0001b0 4c d8 89 bc db b3 35 3c b6 69 59 bd a2 9f c1 bc
       -0.016826771 0.011090244 -0.05307933 -0.02363569
0001c0 d6 b0 48 3c e0 94 ef 3c 66 0c 97 ba 4e 21 fc 3b
       0.012249192 0.029245794 -0.0011524081 0.0076944
0001d0 ab b7 e7 bc ea 0f d1 bd 81 48 1f bd 69 1b 58 3d
       -0.028285822 -0.102081135 -0.038887504 0.052760515
0001e0 81 4a 27 3d f1 d8 76 3a e9 0a 8b bd 84 60 fd bb
       0.040842537 0.0009416482 -0.0678919 -0.007732453
0001f0 4c 7e 2f bd 56 b2 90 3c 44 34 53 3c df 7e 3f bc
       -0.042845055 0.017663162 0.012890879 -0.011687963
000200 a0 0d 54 bb c7 74 53 3d 6f 50 c8 3c 80 4d 65 3d
       -0.0032356754 0.05162504 0.024452416 0.055982113
000210 37 f1 50 3d fa f8 10 bd db 9b 84 bc 91 33 a4 bc
       0.05101129 -0.035393693 -0.016187599 -0.02004412
000220 a8 85 13 3d 8b 9c 32 3d ab 56 11 3d ee 84 e7 3c
       0.036016136 0.043606322 0.035483044 0.028261628
000230 e7 4f cd bd 31 a1 25 be 85 e7 b8 bd 1c 5a 38 be
       -0.10025006 -0.16174771 -0.09028534 -0.18003124
000240 1c c5 90 bd 28 e6 7e bd ce 19 9f bd eb 66 14 bc
       -0.07068846 -0.062231213 -0.07768594 -0.009057741
000250 20 25 48 bc 77 7c 83 bd 41 8a ec bd b5 e0 ab bd
       -0.012215883 -0.06420224 -0.11549807 -0.08392469
000260 89 28 11 be 47 cb 6a bd 87 f0 f1 bc b1 33 44 bd
       -0.14175619 -0.057322767 -0.029533638 -0.04790086
000270 dd c2 6a bd d5 58 4c 3d 43 6e cb bd cf 3f a9 bd
       -0.057314742 0.049889404 -0.0993314 -0.08264124
000280 16 f4 51 bd c6 08 c1 bc 2c 96 88 bd b4 96 ca 3a
       -0.05125817 -0.023563754 -0.06669268 0.001545629
000290 a9 ea 61 3c 86 dd c0 3b 7e 33 9d bd 23 29 ad 3b
       0.0137888575 0.0058857827 -0.07675837 0.005284445
0002a0 67 ee 36 bd 49 d9 f3 bd 81 e1 0e bc 60 11 5c bc
       -0.044660952 -0.11906678 -0.0087207565 -0.013431877
0002b0 0a 6e 16 be cf 01 d3 ba 02 bd 14 3d 7b 41 94 bd
       -0.14690414 -0.0016098561 0.036313064 -0.07239052
0002c0 51 14 20 bc 9a 3d 1f bd b6 8b 25 bd 43 a1 4d 3c
       -0.009770469 -0.038877107 -0.04041644 0.012550655
0002d0 7d 0d 40 3d f3 f3 74 3d 58 45 83 bc b5 4c d7 3c
       0.046887863 0.05980296 -0.016024277 0.026281694
0002e0 75 d0 93 3c c6 11 0b 3d ed 1d 43 3d 71 b7 e1 3c
       0.018043736 0.033952497 0.04763596 0.027553292
0002f0 44 89 d9 3c b2 01 02 3d 2b 73 81 3c ba b3 f0 3a
       0.026554711 0.031739898 0.015801987 0.001836411
000300 bb df cc bb c8 65 81 bc 06 db 8e bc 5c d1 5a bd
       -0.0062522567 -0.015795603 -0.017438423 -0.053422317
000310 26 02 3d 3d f4 7c 44 bc b0 db 78 bd 0a 19 05 bd
       0.046144627 -0.011992682 -0.060756385 -0.032494582
000320 45 a1 cf bc a7 ff 95 3a c7 06 0c bd c0 ef f9 3b
       -0.025345454 0.0011443988 -0.03418615 0.0076274574
000330 ff a4 a4 bd 0d 61 85 bd 43 34 ba 3b 88 90 2e bd
       -0.08039283 -0.065126516 0.0056824996 -0.042618304
000340 25 85 29 bd 34 72 00 3d 6b 4f c8 3b 0d 75 75 bc
       -0.041386742 0.031358913 0.006112983 -0.01498152
000350 5e 33 3c bd f4 6a b9 bc 6e ab e4 bd c7 3a c8 ba
       -0.045947425 -0.022634007 -0.1116551 -0.0015276306
000360 45 90 85 3d 31 86 42 bd 43 56 7d 3d be c1 aa 3d
       0.06521658 -0.047491256 0.061849844 0.08337735
000370 40 de 04 bd 86 18 ba 3b c4 d6 78 3d f8 4a ae 3d
       -0.032438517 0.005679193 0.06075169 0.08510393
000380 3a e7 db bb 5b ed b5 3b 67 cd 35 3d 3e 0d eb bc
       -0.006710914 0.0055519766 0.04438534 -0.028692838
000390 5c ca 5d 3c a6 87 32 3c b5 04 e9 3c f0 ad 06 bd
       0.013537016 0.010896599 0.028444627 -0.032880723
0003a0 f2 62 20 ba b9 c9 44 3d de 9d 63 bd 5c bb 09 bd
       -0.00061182596 0.04804394 -0.055570476 -0.033625945
0003b0 f7 e0 a5 3c f3 c9 3e 3a ec 65 47 3c df 12 01 3d
       0.020248873 0.00072780176 0.012170296 0.031512138
0003c0 60 76 b9 3c 31 24 db bc b8 f0 d2 bd 38 9e f3 bd
       0.022639453 -0.026750656 -0.1029982 -0.11895412
0003d0 93 74 88 bd 66 05 43 bd e2 1e b4 bd 7b c4 4f bd
       -0.0666286 -0.04761257 -0.08794953 -0.050724488
0003e0 47 52 0f bd 27 de 31 bd fe 35 d9 3c c9 7a 81 bc
       -0.034990575 -0.04342475 0.026515003 -0.015805619
0003f0 23 56 e6 bc 82 43 3e bd e7 e3 91 bd 89 e7 06 3c
       -0.028117245 -0.0464511 -0.07123547 0.008233913

bias f4 [10]
000000 22 ed a2 3c 9d fd 45 3c 75 d2 87 bc 00 a4 81 bc
       0.019888464 0.012084392 -0.016579846 -0.015825272
000010 c3 a8 97 bc 86 51 a6 3c 07 83 1d 3c 14 6d c0 bc
       -0.018513089 0.020302545 0.009613759 -0.023489513
000020 4b 82 87 3c 3e 79 8b 3c
       0.01654162 0.017025586
